models/nn_model.pt (torch, 13729 bytes, 5 tensors)

fc1.weight f4 [64, 8]
-0.29050443 0.0034638718 0.063648455 -0.19431366 0.17451268 0.28805357 -0.254222 0.051531207
-0.25930145 -0.24353515 0.09578506 -0.021572167 0.037577823 0.2663504 -0.119428396 0.04181733
0.33415458 0.28399175 0.20065328 -0.19874407 -0.021350712 0.158914 -0.22853197 0.32650653
0.11577627 0.049806386 -0.14723194 0.24053752 0.303164 -0.1705497 -0.12514266 -0.25170943
0.29430988 -0.11033029 -0.33203942 -0.08064792 0.42899477 0.340873 -0.18293597 0.33270982
-0.2346484 -0.20557086 -0.2639495 0.010301423 -0.11236613 0.08522912 -0.14883108 0.18403699
0.23002231 -0.023378698 -0.22629501 0.02172794 0.17206232 -0.32036677 -0.3395598 -0.2781648
-0.2159464 -0.21914957 -0.08930494 0.035282485 -0.0025820225 0.26441285 0.122037314 0.16396584
-0.083561994 -0.21236864 -0.27205294 0.38714257 0.22511871 -0.14622526 -0.07785522 -0.30156016
0.25509244 -0.054930117 0.21775919 0.16720739 -0.15348041 -0.14656192 0.37695882 -0.28103405
0.078904085 -0.39805612 -0.02271886 -0.2119803 0.10927308 0.12987581 0.31229064 0.23697142
-0.1463936 0.31223702 0.24926902 0.25858688 -0.19725731 0.21506567 -0.04895886 -0.38943887
-0.43839192 -0.058644187 0.16963613 -0.061194837 0.030202655 -0.33531165 -0.0504847 0.26771128
-0.26012993 -0.15562296 -0.15469018 -0.08271172 -0.34000358 -0.018190673 0.059011113 -0.36365953
-0.1925101 0.19913879 0.08239743 -0.25485295 -0.25738826 -0.37185514 0.095793344 0.07403349
0.26953328 -0.21703129 0.24700944 0.06251599 -0.11629231 0.11222744 -0.24008584 0.35517418
0.22130445 -0.030764073 -0.09707603 0.2616941 -0.07698372 0.018506084 0.05332101 0.3470893
-0.31675878 -0.24947114 -0.18751784 0.16399914 0.37747267 -0.0083403075 -0.1413401 0.2208532
-0.31415558 0.30923384 -0.2693492 -0.06261476 0.24723837 -0.3614466 0.009466816 0.042644408
0.22265165 0.26454908 0.2828605 -0.007602455 0.34406304 -0.13472037 -0.36490196 -0.029937401
-0.19516644 0.24478166 -0.27892697 -0.20045622 0.22393526 0.28816667 -0.21002942 -0.15503232
-0.34631014 0.3970471 0.11271994 -0.22690503 -0.313383 0.3957325 -0.20354787 0.23202844
-0.01248743 -0.22372515 0.25527903 0.31699845 0.008832232 0.32954654 -0.06989356 -0.09556362
-0.23432517 0.27975854 0.092003845 0.07360501 -0.1777811 0.2927963 -0.227654 -0.094176516
0.20243776 0.17821081 0.025758281 0.281651 0.262544 -0.3782886 -0.26929274 -0.23832838
-0.15239453 -0.1749586 -0.28171602 0.37156448 0.15308921 0.37829253 -0.14780737 0.0026162595
-0.37861034 -0.12190533 -0.22438966 -0.0706911 -0.30536753 -0.31375134 0.10709652 -0.25745982
-0.118997246 0.14123397 0.24411868 0.17395568 -0.20336625 -0.35992926 -0.10891395 0.15338403
-0.27410397 0.33829057 -0.06463109 -0.22880869 -0.24072757 0.13390455 0.29359868 -0.008477574
0.040453583 0.2586576 -0.17376761 -0.19291934 0.05912892 -0.0833488 -0.1646469 0.14812604
0.2583116 0.13420096 -0.15140206 -0.12973 -0.15066418 -0.33750585 0.395879 -0.1910665
0.21007513 0.20008788 0.08439573 0.26693732 0.20756063 0.31358814 0.17352842 -0.16844912
00000000: ffbc 94be 2002 633b 1f5a 823d 29fa 46be
00000010: 74b3 323e c27b 933e 6329 82be 6312 533d
00000020: 29c3 84be 4761 79be f52a c43d 1db8 b0bc
00000030: 34eb 193d 145f 883e e096 f4bd a648 2b3d
00000040: 4f16 ab3e 5e67 913e 0e78 4d3e 9183 4bbe
00000050: b0e7 aebc 5aba 223e 4904 6abe dd2b a73e
00000060: 1c1c ed3d c801 4c3d f8c3 16be 784f 763e
00000070: 5038 9b3e 95a4 2ebe 6625 00be 0fe0 80be
00000080: c9af 963e d9f4 e1bd 1201 aabe bd2a a5bd
00000090: 34a5 db3e e886 ae3e 9153 3bbe f158 aa3e
000000a0: ac47 70be 2b81 52be 6424 87be 4dc7 283c
000000b0: 3720 e6bd 9b8c ae3d 2d67 18be 3174 3c3e
000000c0: f88a 6b3e af84 bfbc e1b9 67be cbfe b13c
000000d0: 1b31 303e 1d07 a4be c8da adbe 9e6b 8ebe
000000e0: 0e21 5dbe bf68 60be 82e5 b6bd 5e84 103d
000000f0: 2637 29bb 1f61 873e b3ee f93d a9e6 273e
00000100: 8d22 abbd 2a77 59be 864a 8bbe 8d37 c63e
00000110: 8585 663e 13bc 15be 8f72 9fbd 1866 9abe
00000120: 7a9b 823e 67fe 60bd 44fc 5e3e 6a38 2b3e
00000130: f829 1dbe 5414 16be bf00 c13e b2e3 8fbe
00000140: 7798 a13d 03ce cbbe e71c babc 5d11 59be
00000150: 91ca df3d 2afe 043e 8fe4 9f3e a3a8 723e
00000160: 34e8 15be 88dd 9f3e 6140 7f3e 8065 843e
00000170: d2fd 49be 2d3a 5c3e 1689 48bd 8864 c7be
00000180: e874 e0be e334 70bd 18b5 2d3e 70a7 7abd
00000190: 8f6b f73c f8ad abbe 0bc9 4ebd 7411 893e
000001a0: c02f 85be a05b 1fbe 1a67 1ebe c364 a9bd
000001b0: f314 aebe 9b04 95bc a3b5 713d 9531 babe
000001c0: 5e21 45be 0aeb 4b3e fcbf a83d 167c 82be
000001d0: 65c8 83be cc63 bebe 4d2f c43d df9e 973d
000001e0: 4400 8a3e 733d 5ebe 0bf0 7c3e 6208 803d
000001f0: aa2a eebd 80d7 e53d 10d9 75be 64d9 b53e
00000200: a29d 623e f004 fcbc cccf c6bd c5fc 853e
00000210: a4a9 9dbd 129a 973c 2267 5a3d b0b5 b13e
00000220: 352e a2be 5d75 7fbe ad04 40be 64ef 273e
00000230: 1944 c13e c9a5 08bc 76bb 10be 5727 623e
00000240: 00d9 a0be e653 9e3e 23e8 89be 2b3c 80bd
00000250: 0e2c 7d3e 870f b9be b41a 1b3c e7ab 2e3d
00000260: cbfe 633e fa72 873e 17d3 903e 041e f9bb
00000270: 0829 b03e 23f4 09be 6ed4 babe 483f f5bc
00000280: b6d9 47be 0ba8 7a3e 84cf 8ebe 6544 4dbe
00000290: 494f 653e 958a 933e f411 57be cbc0 1ebe
000002a0: 904f b1be c249 cb3e b6d9 e63d cb59 68be
000002b0: bd73 a0be 739d ca3e da6e 50be dd98 6d3e
000002c0: 1498 4cbc 3518 65be efb3 823e 9f4d a23e
000002d0: 11b5 103c 53ba a83e 5b24 8fbd dcb6 c3bd
000002e0: f0f2 6fbe 833c 8f3e 836c bc3d 39be 963d
000002f0: 400c 36be 66e9 953e 211e 69be 9edf c0bd
00000300: d84b 4f3e e57c 363e 0803 d33c 8f34 903e
00000310: 2b6c 863e 0baf c1be bde0 89be 5b0c 74be
00000320: 500d 1cbe 5928 33be 153d 90be b33d be3e
00000330: 6bc3 1c3e 8faf c13e d15a 17be 8d75 2b3b
00000340: 37d9 c1be 80a9 f9bd 67c6 65be 7fc6 90bd
00000350: 2259 9cbe 04a4 a0be 6c55 db3d c6d1 83be
00000360: d4b4 f3bd a39f 103e 3ffa 793e 7021 323e
00000370: 3e3f 50be a648 b8be 470e dfbd b410 1d3e
00000380: 5b57 8cbe 6c34 ad3e 4e5d 84bd d34c 6abe
00000390: 4a81 76be 461e 093e 9152 963e 86e5 0abc
000003a0: a8b2 253d c56e 843e 23f0 31be a68c 45be
000003b0: 2b31 723d c7b2 aabd 3299 28be 5aae 173e
000003c0: 6b41 843e fa6b 093e 2409 1bbe f1d7 04be
000003d0: b647 1abe 91cd acbe a7b0 ca3e f0a6 43be
000003e0: ef1d 573e d6e3 4c3e abd7 ac3d 02ac 883e
000003f0: c68a 543e a08e a03e 6fb1 313e ed7d 2cbe

fc1.bias f4 [64]
0.012036419 -0.19113885 0.21195711 0.25527206 -0.17119141 0.38700342 -0.120125026 0.21783596
-0.20660946 0.20436995 -0.23158033 0.17685682 0.33890074 0.030199824 0.19794042 0.35096422
-0.078593604 0.29130858 -0.23877908 -0.0098294765 0.24998245 -0.15361129 -0.18741208 -0.28273162
0.33364764 -0.19826391 0.26572073 0.1908921 -0.15458466 -0.38709855 0.35569653 0.05490178
-0.12270363 0.021498986 0.3186683 0.22034799 0.34001985 0.09065337 0.020653136 0.10822364
0.42616245 -0.0018127334 -0.02119881 0.17411403 0.10707343 -0.21476233 -0.10043248 0.28381225
-0.27577007 0.4112769 0.12591542 0.35117477 -0.063273594 -0.013388942 -0.107009634 0.2902907
-0.047609102 0.2676381 0.24842553 0.36114317 0.3065132 0.06784355 0.42828497 -0.14691444
00000000: 6634 453c e7b9 43be 490b 593e 05b3 823e
00000010: cd4c 2fbe 5025 c63e 1c04 f6bd 6410 5f3e
00000020: 6e91 53be 5b46 513e 6523 6dbe f419 353e
00000030: 6684 ad3e 9f65 f73c e5b0 4a3e 95b1 b33e
00000040: aff5 a0bd 6626 953e 8182 74be d00b 21bc
00000050: 66fb 7f3e 474c 1dbe f4e8 3fbe 33c2 90be
00000060: ddd3 aa3e b205 4bbe 8c0c 883e 3879 433e
00000070: 714b 1ebe c831 c6be db1d b63e b0e0 603d
00000080: 0a4c fbbd a41e b03c 7e28 a33e e7a2 613e
00000090: 1517 ae3e 79a8 b93d c430 a93c 5ba4 dd3d
000000a0: f731 da3e 3d99 edba 20a9 adbc f34a 323e
000000b0: 5149 db3d a8ea 5bbe 8baf cdbd d74f 913e
000000c0: bc31 8dbe e392 d23e f9ef 003e 2ecd b33e
000000d0: 9695 81bd 4b5d 5bbc de27 dbbd fca0 943e
000000e0: c301 43bd dc07 893e 4363 7e3e c2e7 b83e
000000f0: 4cef 9c3e 8ff1 8a3d 2b48 db3e bd70 16be

fc2.weight f4 [32, 64]
0.033634916 -0.12474501 0.0023681794 0.1274101 -0.14179353 -0.042459823 0.14219224 -0.08273907
0.15277691 -0.060180336 0.03155494 0.06212974 0.13622679 0.10123455 -0.036637254 -0.088733524
0.069162585 0.084611416 0.19713779 0.1171324 0.05746446 0.0039310944 0.031963777 -0.15555565
0.019344077 0.05291475 0.17780672 0.18880922 -0.045220833 0.09120636 -0.04538753 0.068147466
0.050259214 0.16521749 0.15573263 0.07349406 -0.18818331 0.10138943 0.008388949 -0.047120616
0.09456492 -0.052184273 -0.12450323 -0.11497365 0.03327273 -0.032570798 -0.16728811 0.14838372
-0.10838987 -0.09964255 0.02014318 -0.10171526 -0.033674512 0.058991726 0.0555834 0.05800236
0.08890702 0.05028388 -0.11212388 0.030448258 0.11064484 -0.14876726 0.069546275 0.071454175
0.044548362 -0.048709378 0.124825574 -0.0097888 -0.019297462 0.18084273 -0.013391947 0.07744718
0.033830777 -0.06150351 -0.036946494 0.14610124 0.004755883 0.063033745 -0.024118664 0.0512879
0.17139009 0.08929361 0.002787782 0.06332225 0.07241433 0.006655161 0.061275043 0.14109167
-0.11673539 -0.019945832 0.057361607 -0.077308595 0.109227374 -0.06284104 0.0073143635 0.16298884
-0.02092325 -0.09923448 0.09467722 0.09239247 -0.033599522 -0.046735384 0.014375652 -0.11919748
-0.15072657 -0.04202572 0.059376817 0.11587574 -0.029380584 -0.049693502 -0.031378806 0.007715923
0.13651042 0.16499615 -0.036840934 -0.06298866 -0.150433 0.034869537 0.07121038 0.023593118
-0.06057374 0.13411544 0.17840174 0.1719591 0.17108415 -0.04259075 -0.14085418 0.06846303
0.02641828 -0.012610526 -0.019352358 -0.011178393 -0.02576743 0.029852862 -0.0059389225 0.08130076
-0.057982106 -0.15908854 0.16950166 0.18317345 -0.0888909 0.013766447 0.0059464523 0.11261772
0.0889301 0.124013186 0.04147484 0.02125246 -0.008321062 0.08794556 -0.066643536 -0.047671873
0.058442965 0.15969011 -0.07334708 0.014239867 0.11177993 0.02750016 -0.10815039 -0.034599084
-0.07262458 -0.095215335 0.066007525 0.03992785 0.018882394 0.05057251 0.10430482 -0.087857574
-0.0006086058 0.17577805 0.1600164 0.109901786 -0.0018219525 -0.0064391424 -0.0057026176 0.1713401
0.12741858 0.13080125 -0.094749644 0.08918595 0.051130373 0.03851385 0.09177852 0.10273848
0.13076076 0.030197605 0.038163316 -0.04407463 0.029282942 -0.047434907 0.036057044 -0.011033734
0.109270714 0.05320409 0.10326089 -0.08525873 0.02018229 0.08343143 -0.122507595 0.065450266
0.020161528 -0.044201937 0.13120715 0.023611782 0.06769903 -0.087614655 -0.024755336 0.18189815
0.12279941 -0.0019721384 -0.1334862 0.15783796 -0.014691234 0.09394129 0.06834512 -0.031723805
-0.07514348 0.040633988 0.009874127 -0.0016059754 -0.031405378 0.17269841 -0.02360192 0.11523865
-0.04290712 -0.15787807 0.05152419 -0.0345815 -0.004192574 -0.14043657 0.12870297 0.019019932
0.046472847 0.035643704 0.033894222 -0.03571336 0.066687234 -0.05500041 0.1950369 0.08490146
0.17167445 0.024772044 -0.122733 0.046698157 0.03362291 0.04376956 0.044522792 0.07169207
0.032870136 -0.0469427 -0.030657645 0.07801912 0.0910279 0.15707548 -0.13787417 -0.03547482
00000000: c4c4 093d 507a ffbd 7533 1b3b cb77 023e
00000010: 5332 11be 5aea 2dbd d89a 113e 1a73 a9bd
00000020: 8d71 1c3e a87f 76bd c13f 013d c17b 7e3d
00000030: 097f 0b3e 0f54 cf3d f210 16bd ecb9 b5bd
00000040: 1da5 8d3d c048 ad3d 7dde 493e 1de3 ef3d
00000050: db5f 6b3d 69d0 803b 73ec 023d fb49 1fbe
00000060: 7877 9e3c 23bd 583d f712 363e 3457 413e
00000070: 7b39 39bd 66ca ba3d 46e8 39bd e690 8b3d
00000080: 9bdc 4d3d c62e 293e 6078 1f3e 0e84 963d
00000090: 20b3 40be 43a5 cf3d cd71 093c 8c01 41bd
000000a0: 41ab c13d 2dbf 55bd 8dfb febd 4e77 ebbd
000000b0: fc48 083d f568 05bd 934d 2bbe e7f1 173e
000000c0: 82fb ddbd 6511 ccbd 4f03 a53c 1750 d0bd
000000d0: 49ee 09bd 4fa1 713d 6bab 633d e293 6d3d
000000e0: e214 b63d 78f6 4d3d 34a1 e5bd a06e f93c
000000f0: c399 e23d 7256 18be 476e 8e3d 9156 923d
00000100: 5878 363d 7c83 47bd 8da4 ff3d 3461 20bc
00000110: b615 9ebc d62e 393e e669 5bbc a19c 9e3d
00000120: 2492 0a3d 1beb 7bbd 3555 17bd 909b 153e
00000130: 3dd7 9b3b d617 813d 8194 c5bc 4313 523d
00000140: e280 2f3e 91df b63d 39b3 363b 19af 813d
00000150: f74d 943d 8913 da3b 8afb 7a3d 567a 103e
00000160: f712 efbd 7165 a3bc 01f4 6a3d f853 9ebd
00000170: 9ab2 df3d ceb2 80bd 54ad ef3b 8ce6 263e
00000180: 3c67 abbc 723b cbbd 21e6 c13d 4338 bd3d
00000190: a79f 09bd 9a6d 3fbd db87 6b3c cf1d f4bd
000001a0: 1158 1abe 2923 2cbd 1b35 733d 4350 ed3d
000001b0: 8daf f0bc 6a8b 4bbd 1087 00bd dad5 fc3b
000001c0: 63c9 0b3e c0f4 283e 85e6 16bd 3300 81bd
000001d0: 1c0b 1abe 5cd3 0e3d bfd6 913d 5b46 c13c
000001e0: 2c1c 78bd 8f55 093e f2ae 363e 0c16 303e
000001f0: af30 2f3e a373 2ebd 143c 10be 5836 8c3d
00000200: 266b d83c 619c 4ebc d688 9ebc 9425 37bc
00000210: 3816 d3bc fd8d f43c 4b9b c2bb 0381 a63d
00000220: a57e 6dbd 1be8 22be d891 2d3e d291 3b3e
00000230: 6f0c b6bd aa8c 613c 75da c23b 1fa4 e63d
00000240: fc20 b63d a0fa fd3d 86e1 293d a419 ae3c
00000250: 1055 08bc cd1c b43d 687c 88bd 9543 43bd
00000260: e461 6f3d ce85 233e fe36 96bd 554e 693c
00000270: e0ec e43d 0448 e13c f47d ddbd c5b7 0dbd
00000280: 32bc 94bd 4200 c3bd f42e 873d 638b 233d
00000290: 40af 9a3c 1f25 4f3d c49d d53d acee b3bd
000002a0: d88a 1fba 29ff 333e 57db 233e 3014 e13d
000002b0: 95ce eeba 71ff d2bb 06dd babb c773 2f3e
000002c0: 047a 023e c3f0 053e 1a0c c2bd 20a7 b63d
000002d0: 156e 513d b3c0 1d3d 60f6 bb3d 8d68 d23d
000002e0: 26e6 053e f860 f73c 2351 1c3d 9987 34bd
000002f0: c8e2 ef3c 1b4b 42bd 8db0 133d d6c6 34bc
00000300: 53c9 df3d 88ec 593d 727a d33d 219c aebd
00000310: 5455 a53c 19de aa3d 43e5 fabd ca0a 863d
00000320: ca29 a53c 170d 35bd 2b5b 063e 7f6d c13c
00000330: caa5 8a3d 506f b3bd b4cb cabc 8243 3a3e
00000340: 427e fb3d fe3e 01bb 9bb0 08be 46a0 213e
00000350: 80b3 70bc 4b64 c03d 87f8 8b3d d2f0 01bd
00000360: d3e4 99bd d36f 263d 17c7 213c 987f d2ba
00000370: eda2 00bd dad7 303e d058 c1bc 3e02 ec3d
00000380: 60bf 2fbd caaa 21be 070b 533d 55a5 0dbd
00000390: dc61 89bb 9bce 0fbe b6ca 033e b0cf 9b3c
000003a0: 505a 3e3d 22ff 113d abd4 0a3d 2c48 12bd
000003b0: 5193 883d 1c48 61bd c1b7 473e d1e0 ad3d
000003c0: 6dcb 2f3e beee ca3c 705b fbbd 9146 3f3d
000003d0: 2db8 093d b647 333d 885d 363d 4bd3 923d
000003e0: d6a2 063d fd46 40bd be25 fbbc 7dc8 9f3d
000003f0: d66c ba3d 65d8 203e e32e 0dbe 0b4e 11bd

fc2.bias f4 [32]
0.13062614 -0.039227873 0.02456353 0.13511303 0.119192064 0.07036044 0.068485886 0.10103021
0.07200757 0.09081341 0.06286314 -0.007406956 -0.047504168 -0.05679454 -0.027703324 0.13865504
-0.00980319 -0.04372823 -0.012063972 0.14447798 -0.039775368 0.08870557 -0.0061655436 -0.041828565
-0.06840122 -0.06343471 0.12549533 -0.047193415 0.09456618 0.050937343 0.031919852 0.09966293
00000000: dcc2 053e 68ad 20bd 7539 c93c 125b 0a3e
00000010: f81a f43d 2219 903d 5442 8c3d ede8 ce3d
00000020: b478 933d 62fc b93d 64be 803d 0db6 f2bb
00000030: bb93 42bd 64a1 68bd 15f2 e2bc 96fb 0d3e
00000040: 8f9d 20bc 5f1c 33bd f7a7 45bc 09f2 133e
00000050: 7feb 22bd 44ab b53d 5408 cabb 6e54 2bbd
00000060: f015 8cbd 0fea 81bd d981 003e e24d 41bd
00000070: eaab c13d ada3 503d 64be 023d 141c cc3d

out.weight f4 [1, 32]
-0.15221637 0.24883771 0.119679354 0.18235514 0.17405951 0.19882837 0.020574592 0.12521408
-0.22197467 -0.14483269 -0.049345996 -0.015236684 -0.04805552 0.21903414 -0.09745796 0.19060008
-0.09214656 0.24090146 0.12177021 0.13335684 -0.22456627 -0.20392387 -0.16891286 0.20242906
-0.17070878 -0.1607118 0.18807071 0.09584191 -0.14444837 -0.21771134 -0.17922768 -0.2228396
00000000: 9cde 1bbe 50cf 7e3e 731a f53d 4ebb 3a3e
00000010: a83c 323e aa99 4b3e 0c8c a83c 1f38 003e
00000020: 544d 63be 054f 14be 071f 4abd 49a3 79bc
00000030: ddd5 44bd 7c4a 603e 0a98 c7bd ab2c 433e
00000040: 56b7 bcbd dfae 763e a962 f93d b28e 083e
00000050: b3f4 65be 6bd1 50be 7ef7 2cbe 9049 4f3e
00000060: 48ce 2ebe a291 24be 9c95 403e c348 c43d
00000070: 46ea 13be b9ef 5ebe 7687 37be 1030 64be
