models/nn_model.pt (torch, 13729 bytes, 5 tensors)

fc1.weight f4 [64, 8]
00000000: a2ab 1d3e 12b1 1fbe d7f9 4a3e 8525 4fbe
00000010: 8c81 303d 1705 b2be e202 afbd b38d 39be
00000020: 2b53 a33d e8b2 4a3e 9bf4 65be a177 a4be
00000030: bea9 0b3e 91e3 34bd 31ac c2be 8876 3f3e
00000040: 7535 cb3c 040b 823c 9465 3abe d8ee c6be
00000050: dd67 c0be 540e ff3d 64f8 e0bb a62a 8d3e
00000060: 4458 a83e 3347 cdbd 869c 57be 63aa 1ebe
00000070: f817 5b3d 20cd ccbe 01dd 893e 9772 77be
00000080: 7d1d a63d 25b9 c13e a050 a33e d9bc 153e
00000090: 6a7f aa3e 4de0 3e3d 0fdc acbe 063a 753d
000000a0: 167c c7be aecf 4dbe 9a8e 603e add3 a2bd
000000b0: 8c29 6f3e b091 34be 7331 cdbe 85bd fdbd
000000c0: 5281 c6bb fa64 9abe 6e93 96bc 5216 643e
000000d0: f4c2 683d 42db 0f3e fe11 24bd 6394 c0bc
000000e0: f3d4 56bd 8661 ed3d 6c5e 923e f0c1 f83d
000000f0: eb6b a43e b59b c1be af4c 573e 1553 453e
00000100: ec5c 8dbe eb8f d43d bf47 173e bae2 833e
00000110: 02ed 153e 3c24 83be 6d84 d0be 625b 3f3e
00000120: 74fe ae3e 1242 a43e 750e a4be e71b 59be
00000130: c03d b3bd ea94 ef3d dc1d 34bc 4d48 08be
00000140: c375 5cbc dec4 973e 6003 b4bd 5283 9d3e
00000150: 9af3 c7be 1bea 273e ca8d 5ebd a52e e63d
00000160: dd76 853d fa6d cc3d d0e2 113e 7f33 a33d
00000170: 8c77 90be 7031 eebd 53d2 2c3e 9b7f 3ebd
00000180: 471b 1dbd e33c 2e3e 09c2 66bd 5fa2 043e
00000190: e4b0 d8bc f0f0 14be a433 0a3e f8a2 d63c
000001a0: c286 2d3e 9e0f 8cbe 76f3 a43e 6c47 de3d
000001b0: ab46 53bd 84ad 44be 46fa d4be 2c51 6fbd
000001c0: 58c6 bcbe cd27 3e3e 81b9 debd b1e6 96be
000001d0: 962e 7bbe 93f2 adbd 590b d6be 73b3 083e
000001e0: 3480 ac3e 8d99 89be 7b3f 1f3e 62e4 6c3e
000001f0: 5109 37bd 95e4 6c3e 0e16 913e b131 7cbd
00000200: 0a23 d7be 6d0f 70be 2e38 7d3e 07f5 88bc
00000210: 3e5e 1f3d 1211 8bbd e3ad ac3e f0fc 8ebe
00000220: 2fff 86bd 6859 56be 3c2c f03d cfe7 933e
00000230: e521 4bbe 14e5 54bd 6b90 883e 1291 4abe
00000240: 96b1 2f3e e5ef 6cbe 95cb b23d 1c2e 9d3e
00000250: 90fa a7be dfca 99be 2c74 c03e 3d28 ebbd
00000260: 3140 053e dc9f 8cbe a504 063e 538d ef3d
00000270: db5b a7bd b50d a43e d65f d33d 7efa 0b3e
00000280: 087f cc3e eddc 903e 0ac8 fc3d 3f58 07be
00000290: 1b41 993e 7a84 b6bc 32b5 643e ac49 04bc
000002a0: 8148 d0bb c540 bbbe 2209 5bbd 7515 6a3e
000002b0: 1c38 57bd c986 3c3d 8210 35be 9d5e 6f3d
000002c0: 8b2e 99be 85a0 9cbe 9ceb 493e 3b25 ea3d
000002d0: 0b7f a33d 91f7 853e c7eb 8cbe e145 bbbe
000002e0: 5bae cb3e 953c 843e 0c14 a9be d0cb 853e
000002f0: bcb6 d43d 1fc7 a33c 56a4 8d3e 313e c13e
00000300: 5e75 293d bdba d1bd 4498 c5bd cf8a 043c
00000310: 5328 6cbe 4b50 b6be 724a 1a3d 4a57 4e3e
00000320: 6e52 fa3d 97a4 1e3e 9199 833d 3219 c23c
00000330: a448 89be 4ca3 d1be 4a91 183e b1dc 493e
00000340: 5dd6 d8bd 0c13 d2bb 64a3 a23e 327d ccbe
00000350: 5785 13be e87c c6be e98d 8f3e c41e 8e3e
00000360: 5f37 153e 5f9b 6ebc 2b22 c8be cd28 7b3e
00000370: d42e 613e f870 e43d 4bc5 c2be d578 52be
00000380: e968 0b3e 4918 be3e e690 b03e a8e8 a63c
00000390: cee7 69bd c12d 4abe 6b8d 1b3c d2f6 2cbe
000003a0: bcc8 fabd ba99 9a3d f6fb fdbc 19d9 febd
000003b0: b9c9 743e 86e5 873e 0b16 8ebe 3f1d 343e
000003c0: e4e4 ba3e 65bb 173c 43d9 65be c17b c6be
000003d0: 8631 01bd c148 283d a6fa 19bd 3324 78be
000003e0: 16de 283e 18e6 07bd 1feb e1bd f8f1 073d
000003f0: b68c cebd 59a1 98be 3474 0cbe 6f30 c23d
0.15397504 -0.1559489 0.19821869 -0.20229156 0.043092296 -0.34769508 -0.08545472 -0.1812046
0.079748474 0.1979481 -0.22456591 -0.3212252 0.1363897 -0.044162337 -0.38021997 0.1869756
0.024805764 0.015874393 -0.18202811 -0.38854098 -0.3757924 0.12453905 -0.006865548 0.275716
0.3287984 -0.10023346 -0.21055803 -0.15494685 0.053489655 -0.40000248 0.26926425 -0.24164806
0.08111093 0.37836567 0.3189745 0.14622821 0.33300334 0.04660063 -0.3376164 0.05986979
-0.38961858 -0.20098755 0.21929398 -0.0795053 0.23355693 -0.176337 -0.4007679 -0.123896636
-0.0060578967 -0.30155164 -0.018380847 0.2227414 0.056826547 0.14048484 -0.04005622 -0.023508256
-0.052449178 0.11590867 0.28587663 0.12146366 0.32113585 -0.37814108 0.21025346 0.19269975
-0.27609956 0.10379013 0.14773463 0.25758916 0.14641193 -0.25613582 -0.40726033 0.18687204
0.34178507 0.32081658 -0.3204228 -0.2120205 -0.08752012 0.11698325 -0.010993447 -0.1330883
-0.013455811 0.29642385 -0.08789706 0.30764252 -0.3905304 0.16397898 -0.05433444 0.112393655
0.06516812 0.09981914 0.14246678 0.079688065 -0.28216207 -0.11630523 0.16877107 -0.046508413
-0.03835609 0.17015414 -0.05633739 0.12952565 -0.026451536 -0.14545035 0.13496262 0.026200756
0.16945937 -0.27355665 0.32216996 0.108534664 -0.051581066 -0.19206816 -0.41597193 -0.05842702
-0.36870074 0.1856987 -0.10875226 -0.2947288 -0.2452949 -0.08493533 -0.41805533 0.13349704
0.3369156 -0.26874962 0.1555156 0.23133996 -0.04468662 0.23134072 0.2833714 -0.061570827
-0.4201892 -0.23443384 0.24728462 -0.0167184 0.038908236 -0.06790365 0.33726415 -0.2792735
-0.06591641 -0.20932543 0.11727187 0.28887793 -0.19837148 -0.05197628 0.26672682 -0.19781902
0.17157587 -0.23138388 0.087302364 0.3069924 -0.32808352 -0.3003759 0.37588632 -0.11482284
0.13012768 -0.27465713 0.13087709 0.11696877 -0.08171817 0.32041708 0.10321014 0.13669774
0.39940667 0.28293553 0.12342842 -0.13217257 0.29932484 -0.022279967 0.22334746 -0.008074205
-0.0063562994 -0.36572853 -0.053475507 0.22859748 -0.052543744 0.04602698 -0.17682078 0.05843984
-0.29918322 -0.30591217 0.19718784 0.114328824 0.07983216 0.2616544 -0.27523634 -0.3657675
0.3978146 0.2582747 -0.33023107 0.2613206 0.10386416 0.01999241 0.2766444 0.3774276
0.041371696 -0.102406956 -0.09648183 0.008089735 -0.23062257 -0.35608134 0.037668653 0.20150486
0.122227535 0.15492474 0.06425775 0.023693655 -0.26813233 -0.40944898 0.14899173 0.19713093
-0.105877616 -0.006410962 0.31765282 -0.39939266 -0.14406334 -0.3876717 0.28037956 0.27757847
0.14571904 -0.014563411 -0.39088568 0.24527283 0.2199052 0.111543596 -0.38041148 -0.20553906
0.13614239 0.37127903 0.3448555 0.020374611 -0.05710583 -0.19744016 0.009494166 -0.1689103
-0.12245318 0.07548852 -0.031003933 -0.12443752 0.23905076 0.265423 -0.27751192 0.17589281
0.36502755 0.009260987 -0.2244616 -0.38766292 -0.03154137 0.04108501 -0.037592553 -0.24232559
0.16490969 -0.03317842 -0.11031174 0.033189744 -0.10085432 -0.29810598 -0.13716203 0.09481894

fc1.bias f4 [64]
00000000: 9246 10be 1a52 ce3e bdd6 4cbe 657f 303e
00000010: d6c0 8abe a247 3fbd 877c b33d ab01 6f3e
00000020: 433d cd3d e04f d93e 38af 523e 615f 9f3e
00000030: 0c3b 1a3e 648a 6b3e 748b 12be ffa0 91be
00000040: c52f 75be a594 3fbd 91f7 4e3e 3a73 0f3e
00000050: ecee 383e 4127 193e ec42 68be d8b7 8f3e
00000060: 82e4 9a3e 51b8 023e a3be f93c f43a b53e
00000070: 9461 a23e cdf6 ab3e 0bda b33e 4060 8a3e
00000080: 9c64 273e 7ac8 c3bd 8c83 00bb d549 473c
00000090: 2e59 ce3d 535e a43e f655 3f3e 72ed 19be
000000a0: e4a2 27bc e824 9a3d cd8b 1b3e ed6b d93c
000000b0: dafa a53d b013 18bd 3665 99be 05b2 803e
000000c0: 3027 c73e e950 8c3e 54a9 8e3e 31a9 813d
000000d0: b6ae 8cbe a5af 7b3e 39b6 683e 40cc bfbc
000000e0: 0315 163e de1b 4f3e 20da acb9 79cf 1e3e
000000f0: ac4a b83e 1257 06be 4b6c a9bd ee6e b7bc
-0.1408942 0.40297014 -0.20003791 0.17236097 -0.27100247 -0.046699174 0.08763986 0.2334048
0.1002145 0.42443752 0.20574653 0.31127456 0.15061587 0.2300201 -0.1431101 -0.28443143
-0.23944004 -0.046772618 0.20211627 0.14008799 0.18059891 0.1495638 -0.22681779 0.2806995
0.30252463 0.12765624 0.03048641 0.3539654 0.3171507 0.33586732 0.3512729 0.27026558
0.16346973 -0.09559722 -0.0019609658 0.012163599 0.100756034 0.32103214 0.18685135 -0.15031984
-0.010231707 0.075265706 0.15190049 0.02654072 0.08104487 -0.03712815 -0.2996003 0.25135818
0.38897085 0.2740548 0.27863562 0.06331099 -0.27477044 0.24578722 0.22725762 -0.023412824
0.14656453 0.20225474 -0.00032968912 0.15508832 0.3599447 -0.13119152 -0.08272608 -0.022391763

fc2.weight f4 [32, 64]
00000000: e642 66bc 14e6 34bd 0ccd f83c 7a21 d4bd
00000010: 1dbd 6fbd 952d 10bb 2784 00bd 88b9 65bd
00000020: 946c 7fbd 658e 013e 4d46 1d3e 9ae3 223e
00000030: 55e6 a5bc 67e2 7f3d dfb7 133d ed75 413e
00000040: 98b3 853d 9b61 cf3c f2a2 c6bd b0ec 213e
00000050: 3dc5 a1bc 070c 953d f094 4abc a8ed 113e
00000060: 545d 02bd 21b8 3fbe 25ea 07bd 98d5 0f3e
00000070: 080e 8a3d a790 243e 8256 123d 1781 22bd
00000080: 215c 123d aaf2 b9bd ae86 79bd 88ac 233e
00000090: 9971 5f3b 4e0c 8a3c 326c 22bd d94a 3ebd
000000a0: e8a8 343e 8d5a f53d bf02 54bd 31c1 57bc
000000b0: 0abf 8ebc 6ef4 d3bc 6ebf 733d 5e07 1c3d
000000c0: 7a1b 453e 7e01 823c 0466 a4bd 8678 e1bc
000000d0: 7ca2 133e c289 533d dcde 9b3d a254 383e
000000e0: 247d b2bb a271 a5bc 285d 473d 5c5c 1ebd
000000f0: 0104 403d eda4 b73d b822 c2bc 777b 4ebd
00000100: 98a1 4cbd 6927 ce3d 421f 963d 3a45 c9bd
00000110: ac75 f03c aa19 203e 8b57 d5bc 28cb a4bd
00000120: 795e f83d 47da df3c b9c1 383d 4750 1d3c
00000130: f386 cdbd 56d3 a63d 310e 42bd f9b4 093d
00000140: c257 18be a8d8 60bd bcc5 38bd 3893 e43d
00000150: 4706 2b3e adb7 9dbb 2255 063e fe5f a83d
00000160: 701a cdbd ad99 fcbd 8d6c aabc 7a87 a93c
00000170: 6239 bf3d dbf9 313e 0700 e8bb da4e 9fbd
00000180: f003 ab3c 32b7 38bd 4904 c9ba 22bb c33d
00000190: 4fba 763d 5b5b 183e 56a6 0b3e c438 483d
000001a0: fcaf 0c3e 1e08 1a3e c548 3b3e 670c a23d
000001b0: 0a9a d3bd 2274 c8bd 29f7 03bd b52d 863c
000001c0: bcd0 ad3c 1ed7 853d 2b05 57bd 7caf 89bc
000001d0: 47d8 7d3c 83a7 2bbd d9a4 87bd 7ee6 0d3e
000001e0: a60a b3b8 6e64 6c3d 87d6 55bd 3c0b 91bd
000001f0: 0224 da3d 2b5c 963c 2a31 403e 1c70 053e
00000200: fca9 393e b9fb 803d d8e5 9cbd a599 1c3d
00000210: 799f c13c fb2c 3e3d ab94 1bbe e749 073e
00000220: 1bf5 f53c 2f2d b9bd 0d9f 8e3d ac0d ef3c
00000230: 1fea da3d 0ec4 d93d 7441 0c3c b1ea e5bc
00000240: fafe e9bb cfbd fabb f926 793c d298 9cbd
00000250: e1a8 123e 075d 183e a80c 8bba 3328 8abc
00000260: ddac 223e 62e1 07bb fc8c fe3d 49c9 00bb
00000270: c037 91bb 4b81 cc3c b050 d43d 92fc 353c
00000280: 6ea4 babd 1eb0 d63d f33b 163e 3f33 e23c
00000290: be60 0b3e 8a76 9b3d fee6 11be dfd0 8bbb
000002a0: 54fa 9c3b 532d 6bbd fe95 29be 856c d8bd
000002b0: 7647 b1bc 4e36 50bd ca93 10be 635a 96bd
000002c0: 091f 293d c4e8 4f3d dbfe 0c3e 5142 a1bd
000002d0: 6f5d 55bd 98a0 553c f729 ec3d 1792 1dbd
000002e0: 6a87 083e ca60 c73d 84af 39bc 4781 153e
000002f0: e10e 00be 54d6 233d b54f 9abd 505c 473d
00000300: ba3a 2c3d eb2b 8e3d 5d5c fd3d 46bb 253e
00000310: 42fb 963c 8066 fc3d 226a 93bd 5f42 0bbd
00000320: 88c1 57bc 8f66 e9bd 48de a4bb 8484 3e3e
00000330: 17f7 283d 83cc 203d 8882 993d a36a 73bd
00000340: ca6f 3a3c 27f5 b53d 67f0 013d 4224 f43b
00000350: 65b7 00bd 4738 a83d 0ab2 553c f707 e83c
00000360: 9a37 0abd 2eed 253e 9ede 493c 39f0 d43d
00000370: 6daa f83c 944e d8bd 859c e53c ee38 b93b
00000380: adf3 b9bd eb10 143e 2a8a 0a3e ca0f efbd
00000390: b984 243c b55d 643d 8a2b 613c 82ee 683c
000003a0: 5079 13be fdec 4f3d 0d22 a5bd e898 01be
000003b0: d4d6 1d3e cf45 38bd e8a1 9f3d 08c3 a53d
000003c0: e6a5 443d e01b 043d e40c a93d ce93 96bd
000003d0: c3e5 ca3c ec52 87bc 0ffc a53c fbe7 ccbc
000003e0: 50a3 c13d 8ba6 bd3d 310d 6f3d 6444 063d
000003f0: 0319 04be d75f b2bc d142 04be 7308 acbc
-0.014054036 -0.044164732 0.030371211 -0.10357948 -0.05852996 -0.0021999825 -0.03137603 -0.05608514
-0.062359408 0.12651975 0.15358849 0.15907136 -0.020251432 0.062471773 0.036064025 0.18892641
0.065283954 0.025315097 -0.09699048 0.15812945 -0.01974737 0.07277685 -0.012364611 0.14250815
-0.031827286 -0.18722583 -0.033182282 0.14046323 0.067409575 0.16070805 0.03572703 -0.03967389
0.035732392 -0.090794876 -0.060919456 0.15983784 0.003409481 0.01685157 -0.039653964 -0.0464581
0.17642558 0.11980162 -0.05176043 -0.013168619 -0.017425079 -0.02587339 0.059508733 0.038092963
0.19248763 0.015869852 -0.080272704 -0.02752329 0.14417452 0.051645048 0.076108664 0.18001035
-0.005447047 -0.020195786 0.048672825 -0.0386623 0.04687882 0.08967004 -0.023698196 -0.050410714
-0.049958795 0.10066111 0.07330181 -0.09827657 0.029352985 0.1563479 -0.02604272 -0.080465615
0.12127394 0.027325762 0.045106623 0.009601659 -0.10035505 0.08145778 -0.047376815 0.033619855
-0.14877227 -0.05489412 -0.04511045 0.11160892 0.16701613 -0.0048131556 0.13118413 0.08221434
-0.10014808 -0.12333999 -0.020803714 0.020694483 0.09337117 0.17380469 -0.0070800814 -0.077787116
0.020875901 -0.045096584 -0.001533636 0.09557177 0.06023627 0.148786 0.13637671 0.04888226
0.13739008 0.15042159 0.18289478 0.07912522 -0.10332115 -0.097877756 -0.032218132 0.016379217
0.021217696 0.06535171 -0.052495163 -0.01680731 0.015493459 -0.0419078 -0.06623239 0.13857457
-8.5373686e-05 0.057712965 -0.052206542 -0.07082221 0.10651399 0.018354496 0.18768755 0.13031048
0.1813125 0.06298012 -0.07661027 0.038232464 0.023635613 0.046429615 -0.15193431 0.13211785
0.030024102 -0.09041821 0.0696393 0.029181324 0.10689186 0.106330976 0.008560527 -0.028066011
-0.0071409913 -0.0076520215 0.015207046 -0.07646336 0.14322235 0.14879237 -0.001060863 -0.016864872
0.15886255 -0.0020733704 0.124292344 -0.0019651225 -0.0044316947 0.024963995 0.103669524 0.011107581
-0.09113394 0.104828104 0.14671306 0.027612327 0.13611123 0.07590969 -0.14248273 -0.0042668427
0.0047905836 -0.05741627 -0.16561124 -0.105675735 -0.02164052 -0.05083304 -0.14118877 -0.07341459
0.041289363 0.050759092 0.13769095 -0.07873977 -0.05209106 0.013038777 0.11531442 -0.0384694
0.13332906 0.09735258 -0.01133335 0.14600097 -0.12505676 0.03999932 -0.07534734 0.04867202
0.042048194 0.069419704 0.123711325 0.1618472 0.018430356 0.12324238 -0.071979776 -0.033998843
-0.0131687 -0.113965146 -0.005031381 0.18605238 0.04125127 0.039257538 0.074956 -0.05942787
0.011379192 0.0888465 0.031723406 0.0074506113 -0.0314249 0.08213859 0.013042936 0.02832411
-0.033744432 0.16203758 0.0123211425 0.10397381 0.030354703 -0.105618626 0.028028736 0.0056525385
-0.090796806 0.14459579 0.13529268 -0.116729334 0.010041409 0.05575343 0.013743291 0.014217021
-0.14401746 0.05076312 -0.08063135 -0.12655985 0.15413982 -0.04498845 0.07794553 0.0809384
0.048009776 0.032253146 0.08254412 -0.0735241 0.024767762 -0.016519032 0.020261792 -0.02501296
0.094549775 0.09260281 0.05836219 0.032780066 -0.12900166 -0.021774216 -0.12916113 -0.021000123

fc2.bias f4 [32]
00000000: 7997 ea3d c4fe d53d 6b2a 883c 10a2 103e
00000010: e60c c83d da2e c53d b6c2 1cbc 9d32 f3bc
00000020: bb8f 0d3e b84d 16bd 04c8 beba 42de 053a
00000030: 80db e9bd 7240 3b3e d17c 353e 8bf8 5cbd
00000040: d67c fcbc 3c04 243e 3cb2 d13d 00d8 e03d
00000050: 6836 c93d fd72 563d 0754 0ebc 1890 cabc
00000060: 4755 20ba c3d8 b13c c5d2 adbd a589 fa3b
00000070: 3fe3 b73d 3a79 f23d 58cd 79bd 3c1a 8c3d
0.11454672 0.10448983 0.016621789 0.14124322 0.09768085 0.09628077 -0.009567907 -0.02968722
0.1382436 -0.036695212 -0.0014555459 0.00051066664 -0.114188194 0.18286303 0.17723395 -0.053947967
-0.030821245 0.1601724 0.10239074 0.10978699 0.0982483 0.052355755 -0.008687026 -0.024726912
-0.0006116223 0.021709805 -0.08487467 0.007645803 0.08978891 0.118395284 -0.060986847 0.06840941

out.weight f4 [1, 32]
00000000: c8a5 4e3e 9da8 693e c8b0 2dbe 9282 0fbe
00000010: d2be 893d 5c02 70be fe1d e5bd 542e f8bd
00000020: 7543 1e3e e218 2a3e 2aa9 c03d 469e a03d
00000030: 1722 60bd f120 093e 88db 0fbe 899d 7a3e
00000040: 8390 09be 189e bfbd 2292 a23d 6934 42be
00000050: c049 65bd 235e 64be 8199 1ebd e680 73bd
00000060: 1c84 d6bd e2f4 673e 20da 14be 5591 b9bd
00000070: 0518 403e 25fc cfbd 528e 073e a10d c6bd
0.20180428 0.22818227 -0.16961968 -0.14014652 0.06725849 -0.234384 -0.11187361 -0.121182114
0.1545542 0.16611055 0.094072655 0.07842688 -0.05472001 0.13391472 -0.14048588 0.24474157
-0.13434033 -0.09356326 0.07938029 -0.18965305 -0.055978537 -0.22301535 -0.03872061 -0.0594491
-0.104744166 0.22652009 -0.14536333 -0.09060923 0.18759163 -0.10155515 0.13237885 -0.09670568
